HW3/Humidity_Temperature Alerts Monitoring  System/Cloud/cnn.tflite (tflite, 71540 bytes, 7 tensors)

unknown_0 f4 [64]
00000000: 28d9 f6bd 6891 213f cf20 1cbf d4a4 a1bd
00000010: f135 68be 721c 153f f8c5 c3bd f564 89be
00000020: bac2 dfbd cfac b7be f3ff 27bd cac7 d8bd
00000030: da51 883d ed71 41be 440b d33e f8d6 3fbe
00000040: 721a 713f 2ff4 103e e4ec 22be bf70 6a3f
00000050: c5f1 593f 3718 39be 15e2 5bbe 2682 e3bd
00000060: c1df 0e3e cafb 3e3e 65ff 193f a8ab 223f
00000070: f7e0 1fbe 4f90 80be a8fb d8be 663e 0f3e
00000080: 914f b63d 7af6 3f3f c312 87be eb45 94be
00000090: cc39 83be 63af ecbe ef23 41be 411d afbe
000000a0: 73b4 fc3c 8137 3c3f ecc0 10be effc 013f
000000b0: 3beb 0b3e 52db d03e e1e1 23be 6d9f 08be
000000c0: 450c 84be 71da 9abd 76c4 7dbe 2fd0 663f
000000d0: f366 e1be 4d91 663f 01db 5ebe 4ce0 373f
000000e0: 7c5f 22be 2938 8a3e 3221 e33d 0637 c8be
000000f0: 8da5 0dbe e878 4b3f e297 033f fc93 073f
-0.12053138 0.631125 -0.6098756 -0.078927666 -0.22676827 0.5824653 -0.09559244 -0.26834837
-0.10925813 -0.3587403 -0.041015577 -0.10584982 0.06656237 -0.18891115 0.41219532 -0.18734348
0.9418098 0.14155649 -0.15910679 0.91578287 0.85134536 -0.18075643 -0.21472962 -0.11108808
0.13952543 0.18650737 0.60155326 0.63543177 -0.15613161 -0.251101 -0.42379498 0.13988647
0.08901895 0.7498547 -0.26381502 -0.28959593 -0.25630033 -0.4622756 -0.18861364 -0.34202006
0.030847764 0.7352219 -0.14136094 0.5077657 0.13663952 0.40792328 -0.16004135 -0.13342066
-0.2579061 -0.07561196 -0.24781975 0.9016141 -0.44023857 0.9006546 -0.21763231 0.71826625
-0.15856737 0.26995972 0.11090316 -0.3910448 -0.13832684 0.79481363 0.5140363 0.5296018

unknown_2 f4 [64]
00000000: 622c 42bd 6590 40bd 38d4 71bd 1296 2f3f
00000010: ced9 363f 30d1 ebbb 2996 b4be e26b 14bd
00000020: 90db 363f 45f1 403f c01b 02bd 5316 5ebc
00000030: 5e9c cabc b6bd 523f a298 593f 03aa bebc
00000040: 1796 353f 8d57 503f 69b9 283f 26d5 d5bb
00000050: 29df 48bd 76c5 f83e cf32 553f 87f8 063f
00000060: ed0c b1bc 6658 503f 792f debc 8fb1 37bd
00000070: ebc4 5fbd ae18 163f 4d72 523f ca07 233f
00000080: 9dd4 3abd 674c 1b3f 8313 2fbd 0164 563f
00000090: 5ac1 01bd 9725 9e3e 928a 353f 2ba5 4e3f
000000a0: ced2 553f caaa 32bd bc81 cf3d e7ca ab3d
000000b0: d7e3 3e3f c2ae d8bc d7ac 56bd c427 d0bc
000000c0: 021f b53e d043 023f 7bd1 0a3f ed40 94bc
000000d0: 446a 1bbd 0987 9abc 2d4e 533f 46d7 4ebc
000000e0: da5e 2c3f ee5a 0fbc e032 5bbd adde 513f
000000f0: 7e9d b3bc 4ee1 4b3f 341d 84bc 0e5b 3abd
-0.047405608 -0.047012705 -0.05904028 0.68588364 0.71426094 -0.007196568 -0.35270813 -0.036235698
0.71428776 0.7536815 -0.031764746 -0.013555127 -0.024732765 0.82320726 0.84998524 -0.023274427
0.70932144 0.8138359 0.65907913 -0.0065256534 -0.049040947 0.4858815 0.8328065 0.5272297
-0.021612609 0.81384885 -0.027122246 -0.044847067 -0.054631155 0.5863141 0.8220566 0.6368376
-0.04561292 0.60663456 -0.042743217 0.83746344 -0.031678535 0.30888054 0.70914567 0.80720776
0.8352479 -0.04361991 0.10132167 0.0838831 0.74566406 -0.026450519 -0.052410927 -0.025409587
0.3537522 0.50884724 0.5422589 -0.018097365 -0.03794314 -0.018863218 0.8254116 -0.012624567
0.6733223 -0.008749707 -0.053515315 0.819804 -0.021925684 0.7964066 -0.016127206 -0.045496993

unknown_4 f4 [2]
00000000: 4438 e23e 03c6 703f
0.44183552 0.9405214

sequential_1/dense_3/MatMul;StatefulPartitionedCall/sequential_1/dense_3/MatMul f4 [64, 256]
00000000: 989f 0e3d f66a 6abc 9335 c23d e72f dd3d
00000010: e847 23be 5cdd 25be d596 943c 4f8c 9bbc
00000020: 22e8 5ebd fb33 d3bd b046 b3bd 5d73 193c
00000030: 9e90 b43d c826 32be 700f 4cbd 877a f1bb
00000040: 428b cf3d aacc 61bd 143c e33c 5831 a8bc
00000050: 05c3 913c 6845 dabd f5ff 91bd 5332 b73c
00000060: 177b 22bd bb66 8fbd 2aa8 0eb8 3fe8 173c
00000070: 0d7d 853c 732c a6bc 8432 223d ea0a 8b3d
00000080: 7d9f 75bc 2d22 b6bd 7ea6 f3bd 88c3 03bd
00000090: 6e78 863d 401d 18bd c472 8e3d aa77 a13c
000000a0: 2cb6 fb3d 4127 8d3d b037 3bbd 1ec0 3dbe
000000b0: 6875 03be 23c6 503a 4faa d9bd dd95 743c
000000c0: f340 f3bb 8619 fdbc be03 63bd 49e1 5b3d
000000d0: d983 aabd 1e0c 593c 7df2 c6bd 7198 67bb
000000e0: 908f cabc ea31 10be 3d48 d3bb c00b ffbd
000000f0: fc5c adbd b96c ef3c 590a 473c 8995 f93c
00000100: 8023 eb3d 0d4b 363d 56d4 7b3d 1056 db3b
00000110: 6e1c 6a3c 0a24 c13c a15b a43d 420f 9bbd
00000120: 7c5d 02be 7449 44bd b9de fdbd 1d70 93bb
00000130: 1491 c1bd 51c2 d0bc 3ab3 86bd ca81 7a3d
00000140: 18f0 0ebe 1d43 0fbe 7fcd 8cbd c91d 05be
00000150: 67de 733c 5e6e a6bd c908 b6bd 6e20 f53d
00000160: 5df6 343d ab9a debd a13e 99bd d065 84bd
00000170: 9c13 a9bd d1d6 2f3d 1a80 863d 504b 0dbc
00000180: 994a bcbd 896e bb3c 2fb9 f2bd f2e3 c7bd
00000190: 4496 a5bd e38b 983c 31db 903d 5b36 90bc
000001a0: d8f5 8e3d 63a0 2d3d cefa d1bd 326c 14be
000001b0: ac56 7c3d 40ac dd3d 0bd0 543b 78fe 1cbd
000001c0: a60b a03d 0b6f aa3c 0591 84bd 1ae7 c53d
000001d0: 327a 79bd 60de 17be ac55 c6bd d52f 03be
000001e0: 787b d7bc ac3e 97bd b139 ffbd 4060 7dbd
000001f0: 3098 36bd e409 ff3c d52c a8bd 5501 363d
00000200: db76 82bd d7dc 803c e82a 06be 91af ab3d
00000210: c9ca 173d 116b a43d 8b63 6b3d 3830 0fbe
00000220: 1407 0ebe b8ac 383b 4666 063e 7526 cdbd
00000230: e882 073d e56e 9abd ae8b f8bd c603 0f3d
00000240: 74d3 26be 8c6d 833d 036d f73c f877 b6bd
00000250: c7bf 22bd d95c bfbd 4450 e0bc 36e5 6fbd
00000260: caf7 fabd 8792 0bbe b0ad c2bd 0465 c7bd
00000270: 9835 75bd d4ef 7fbd 8897 debd 0065 8e3a
00000280: 4092 6c3c 68dd a9bd 294f b5bd 350b 11bc
00000290: b7fc a23d de81 af3d d20d 023d cc94 abbd
000002a0: 2e1a be3d be9c 06be 638b 693d f63b 6bbd
000002b0: 07f9 36bc 663c e2bb a76f dc3d 5fc3 123a
000002c0: aa97 6abc 3a8e 4bbc 2049 c93c 4fc8 b9bd
000002d0: 82dd 30bd 1497 1e3d 29e0 33be 34e4 c6bd
000002e0: f021 8bbd 92fb c8bd 030d 0cb9 0089 7cba
000002f0: bf65 8ebd c22f ab3d bb03 10be e01c 68bb
00000300: 2806 48bc 6756 973d 6567 f23d add9 f53b
00000310: 7f7d 4dbd 43b5 3dbd 9618 fcbd 6263 dcbc
00000320: 8708 b6bd cf51 f4bd c0cf ac3c a163 9ebd
00000330: 90b4 08bd aeb3 dfbd 8dde 863d 86f2 86bd
00000340: 9d7d 17bc 9a88 f6bc 4b50 36be a036 9c3b
00000350: 67d1 cebd 3ead c03c 7013 78bd 9b74 eabd
00000360: 9f1d bcbd 52bb 413d 61f0 90bd 711f 6bbd
00000370: 2def 903d 26f4 35be 2afd 053d f8be 00bd
00000380: c0da d4bb ae15 b5bd d029 b83d 65cb 8cbb
00000390: 040d bd3d 1e6d 75bd 90e4 d9bd 5a13 10be
000003a0: 7ad0 98bd 7e67 e1bd c02c c6bd 58ae b83c
000003b0: 935c e7b9 3215 23bd 54b9 e9bd 1375 8abc
000003c0: 821d 263d 0b3d bbbd 752c f13d d26f 1abd
000003d0: 05f8 0cbe 6722 b7bd ef3a 723d 42f0 143d
000003e0: c436 22bd 0a63 0abe c09f e03d 3b31 16be
000003f0: 0c9e 563d d3aa 193d 5ad1 533b 859b 0a3c
0.03482017 -0.014307728 0.09482875 0.10800152 -0.15945399 -0.16197723 0.018138329 -0.018987803
-0.054420598 -0.10312649 -0.08753717 0.009365884 0.08816646 -0.17397606 -0.04981941 -0.0073693427
0.10133983 -0.055126823 0.027738608 -0.020531341 0.017793188 -0.106577694 -0.07128898 0.022362864
-0.03966817 -0.07002016 -3.4012053e-05 0.00927168 0.01629498 -0.020284867 0.039598957 0.06789191
-0.014991638 -0.08893237 -0.1189699 -0.032168895 0.06565939 -0.03713727 0.069554836 0.01971038
0.12290606 0.06892253 -0.045707405 -0.18530318 -0.12837756 0.0007964095 -0.10628187 0.014928308
-0.007423514 -0.03089596 -0.05542349 0.053681646 -0.08325929 0.013247518 -0.0971422 -0.0035338665
-0.024726659 -0.1408154 -0.0064478205 -0.12453413 -0.08465001 0.029226648 0.012148463 0.030466812
0.114813805 0.044505168 0.061481796 0.006693609 0.014289005 0.023576755 0.08025289 -0.075712696
-0.12730974 -0.047921613 -0.123959966 -0.004499449 -0.094514996 -0.025483282 -0.065771535 0.061158933
-0.13958776 -0.13990445 -0.06875133 -0.12999643 0.014884568 -0.081265196 -0.088883944 0.11969076
0.044180263 -0.10869344 -0.07482649 -0.06464732 -0.08255693 0.042929474 0.06567402 -0.008623913
-0.09193916 0.022879856 -0.11851727 -0.09760274 -0.080853015 0.01862139 0.070730574 -0.017604044
0.06980485 0.042389285 -0.10252915 -0.14494398 0.061606094 0.1082387 0.0032472636 -0.038328618
0.07814722 0.020804903 -0.06472973 0.0966322 -0.06090755 -0.14830923 -0.09684309 -0.12811215
-0.026303992 -0.073850006 -0.12462176 -0.06185937 -0.04457873 0.031132646 -0.08211676 0.044434864
-0.06370326 0.015730305 -0.13102305 0.08383096 0.037058625 0.08028234 0.05746798 -0.13983238
-0.13869888 0.002817912 0.13124952 -0.10017101 0.033083826 -0.07540683 -0.12136017 0.034915708
-0.162916 0.06417379 0.030203348 -0.08909601 -0.039733674 -0.09343881 -0.027382024 -0.058568202
-0.12254293 -0.13630114 -0.095057845 -0.09736064 -0.059865564 -0.062484577 -0.10868746 0.001086384
0.014439166 -0.08294183 -0.08852989 -0.00885277 0.07958358 0.08569692 0.03175146 -0.0837799
0.09282337 -0.1314573 0.057017695 -0.05743023 -0.011167771 -0.0069041727 0.107634835 0.00055985706
-0.014318386 -0.012424046 0.024571002 -0.09071409 -0.043179996 0.038718298 -0.17565979 -0.09711495
-0.067935824 -0.09813608 -0.00013356288 -0.00096334517 -0.06953 0.083587185 -0.14063923 -0.0035417601
-0.012208499 0.07389527 0.11836127 0.0075027556 -0.05016851 -0.046315443 -0.12309377 -0.026902858
-0.08888345 -0.11929666 0.021095157 -0.077338465 -0.033375323 -0.10922943 0.06585417 -0.065892264
-0.009246257 -0.030094434 -0.17804067 0.004767254 -0.10098534 0.023520108 -0.060565412 -0.11448022
-0.09185337 0.047297783 -0.07077099 -0.05740303 0.07076869 -0.17768916 0.03271214 -0.031432122
-0.0064958036 -0.08842026 0.0899235 -0.0042967075 0.09230998 -0.059918515 -0.10639298 -0.14069882
-0.07461639 -0.11006068 -0.09676504 0.022544071 -0.00044128727 -0.039815135 -0.11412302 -0.016901528
0.040555485 -0.091425024 0.11776058 -0.037704296 -0.13766487 -0.089421086 0.059138235 0.03636194
-0.03960301 -0.13514343 0.1096797 -0.14667217 0.05239682 0.037516426 0.0032320828 0.00845993

sequential_1/dense_4/MatMul;StatefulPartitionedCall/sequential_1/dense_4/MatMul f4 [2, 64]
00000000: f0df 433e 5112 933c cbdb d2bd 7cdd 0a3d
00000010: cef7 2bbe 8e96 c03e 3c80 f0bd 57c9 0f3c
00000020: 21af e33e 0bcc afbd bfa3 9e3d c276 8ebe
00000030: 60d4 7b3d 3ec5 a73d d3ff 4a3e 22b5 613e
00000040: 34fa 9abd e421 033d 341d 96be de70 6f3d
00000050: f981 95bd d74b c4bd 58be 323e eed2 503c
00000060: 980f 84be 3597 383e 8373 543e d337 7abd
00000070: 97aa 303a ad2b 363f 9dcf b23d 8e0a 9dbe
00000080: 5c43 8c3e 95f8 96be 3bbb a1bb e554 c93d
00000090: e414 ccbd 6dc5 bebd 8eed cbbd bb31 4fbd
000000a0: b71c 8e3e 9bd3 29bd 3841 4b3e 0930 4cbd
000000b0: c5e7 a23d 7f96 a03d 593f eebd 5983 b4bd
000000c0: 71cb 17be 879b 94be 2c63 6cbe c340 5abe
000000d0: 3d1d 4bbd f4f8 21be fe47 8d3c a2a5 d73d
000000e0: c3d9 adbe 8e2c 8fbe 113a 293d 53bb 0e3f
000000f0: 5ae3 08be de2c da3c a29a 5e3d 0cd9 31be
00000100: 5322 4fbd 4800 583c 65e8 a53b 78d8 da3d
00000110: c617 a73e 3889 21be 26c5 92be 851e e1bd
00000120: b5c7 0e3e b408 b03e c403 58be 8831 c73b
00000130: a3cb d3bc 3600 b03e fc87 9f3e ea2f 61be
00000140: e518 813e b8ce a73e 95c6 ae3e 5681 5ebe
00000150: e997 d8bd 92fd 27bc bec1 9c3e 1118 813c
00000160: 8c44 84be 1e13 6d3e 9e32 0fbd 541d 60bd
00000170: fdac f4bd f399 033e 127e a73e 9fe3 993e
00000180: fa96 d5bd 3c36 593e 8c36 2bbd dc0b cd3e
00000190: 58af eb3d e549 42bd 81ba 8e3e 05cf da3e
000001a0: 1c0f 8a3e b48d 6abe f4f8 00bd 9f2b 01bf
000001b0: 31e7 313e 724f a2bc 0e09 3fbc 808e 64bd
000001c0: 6267 42bd c224 0f3e 41a8 0c3e 8a0c 86bd
000001d0: 3903 2fbd d478 e4bd 2a4e b93e a2b5 8abe
000001e0: 61d8 b83e 866d 55be 44fb 15bd 927f 6a3e
000001f0: e7ca 6f3e 0da3 903e c965 02be b34a 4ebd
0.19128394 0.01795307 -0.102958284 0.03390263 -0.16793749 0.37614864 -0.11743209 0.0087760305
0.4446955 -0.0858384 0.07746076 -0.2782498 0.061481833 0.08191918 0.19824152 0.22041753
-0.07567254 0.032014742 -0.29319155 0.058457248 -0.07300181 -0.09584778 0.17455423 0.012745602
-0.25793147 0.18026431 0.20747189 -0.061088394 0.0006739287 0.71160394 0.08731005 -0.30672115
0.2739514 -0.29486528 -0.0049356497 0.098306455 -0.09964922 -0.09315 -0.09957419 -0.050584536
0.27756283 -0.04146157 0.19849098 -0.049850497 0.07954363 0.07841205 -0.11633176 -0.08814115
-0.148237 -0.29024908 -0.23084706 -0.21313767 -0.04958843 -0.15817624 0.017246243 0.10529639
-0.33955202 -0.2796368 0.041315142 0.55754584 -0.13367978 0.026632722 0.054346688 -0.17367953
-0.050569844 0.013183661 0.005063104 0.106858194 0.32635325 -0.15775001 -0.28666037 -0.10992149
0.1394337 0.3438164 -0.21095186 0.0060789026 -0.025853937 0.3437516 0.31158435 -0.21990934
0.25214306 0.327749 0.3413588 -0.21729025 -0.105758496 -0.010253327 0.30616564 0.015758546
-0.25833547 0.23151824 -0.03496038 -0.05471547 -0.119470574 0.12851696 0.32713372 0.30056474
-0.10429187 0.21212095 -0.041800067 0.4004811 0.115080535 -0.047433753 0.27876666 0.42736068
0.26964653 -0.22905618 -0.03148742 -0.50457186 0.17373349 -0.019813273 -0.011659874 -0.05579996
-0.047461875 0.13978866 0.13736059 -0.065453604 -0.042727683 -0.11155859 0.36192447 -0.270917
0.36102584 -0.20842561 -0.03661658 0.22900227 0.23417245 0.28249398 -0.1273414 -0.050364207

sequential_1/conv1d/conv1d;StatefulPartitionedCall/sequential_1/conv1d/conv1d f4 [64]
00000000: 0000 0000 0000 0000 0000 0000 0000 0000
00000010: 0000 0000 0000 0000 0000 0000 0000 0000
00000020: 0000 0000 0000 0000 0000 0000 0000 0000
00000030: 0000 0000 0000 0000 0000 0000 0000 0000
00000040: 0000 0000 0000 0000 0000 0000 0000 0000
00000050: 0000 0000 0000 0000 0000 0000 0000 0000
00000060: 0000 0000 0000 0000 0000 0000 0000 0000
00000070: 0000 0000 0000 0000 0000 0000 0000 0000
00000080: 0000 0000 0000 0000 0000 0000 0000 0000
00000090: 0000 0000 0000 0000 0000 0000 0000 0000
000000a0: 0000 0000 0000 0000 0000 0000 0000 0000
000000b0: 0000 0000 0000 0000 0000 0000 0000 0000
000000c0: 0000 0000 0000 0000 0000 0000 0000 0000
000000d0: 0000 0000 0000 0000 0000 0000 0000 0000
000000e0: 0000 0000 0000 0000 0000 0000 0000 0000
000000f0: 0000 0000 0000 0000 0000 0000 0000 0000
0.0 0.0 0.0 0.0 0.0 0.0 0.0 0.0
0.0 0.0 0.0 0.0 0.0 0.0 0.0 0.0
0.0 0.0 0.0 0.0 0.0 0.0 0.0 0.0
0.0 0.0 0.0 0.0 0.0 0.0 0.0 0.0
0.0 0.0 0.0 0.0 0.0 0.0 0.0 0.0
0.0 0.0 0.0 0.0 0.0 0.0 0.0 0.0
0.0 0.0 0.0 0.0 0.0 0.0 0.0 0.0
0.0 0.0 0.0 0.0 0.0 0.0 0.0 0.0

sequential_1/conv1d/conv1d;StatefulPartitionedCall/sequential_1/conv1d/conv1d1 f4 [64, 1, 3, 2]
00000000: e58e 023d ea1d 33be 1296 263e acd5 66be
00000010: bf6a a0be 2c9a c63e fcde dabd 5232 32bd
00000020: 31dd 0e3e b0ba 15be 8c06 223e d208 213e
00000030: 3d36 3abe 6a31 e83e f131 de3c 7849 133f
00000040: 6454 5f3e c8b0 23bf e4a4 b3bb 81cd 80ba
00000050: dc23 e83d cf8d 8d3d afb2 debd 5942 d2bc
00000060: 37bd 923e 4297 fd3d d21a 773d 89b7 5cbd
00000070: 6599 c5be 816b 89bd 1aaa b83c 5396 bdbc
00000080: 0b16 ec3d ecb5 28be 4cce 283d 7a8a 7d3e
00000090: e995 efbc 9aae 61bd 2d51 55be 2a9e d53c
000000a0: 5d42 623e ea6d 4a3c a730 d8bd 8795 71be
000000b0: b95f 63bd 8037 4dbe 48c8 033e 8fbd c13e
000000c0: 1387 b1bd b19c 89bc b27c 363e 4762 b13d
000000d0: 5b25 a6bd 56fe 4ebc 0c81 8dbd 5ec0 85bc
000000e0: 0126 a5bd 9fde 893e c299 d13d 1506 8ebe
000000f0: a4d8 79be 2c6f 3bbe a143 453f b188 1ebd
00000100: 836c 15bf decf 743e c4b1 4fbd 10c6 253b
00000110: 7a13 85bd 83e3 8b3d 981a c73d d595 4dbd
00000120: a278 10bf 5b5d 3a3d e57a 233f 965b a2be
00000130: 8f3a fdbd cde7 833e d6ed 013e b7c4 46bd
00000140: f9b8 173d c0b1 b23d e5d8 50be 33e0 323c
00000150: f515 383e bbea 75be e20f e5bc 5a3b 14bc
00000160: 1eac aabe 25d6 6f3e b2f4 2e3d d29b 0bbd
00000170: ab62 203e b9dd 243b 4bfe 6cbe 8bc0 5c3d
00000180: 2662 d0bc 6ade 54be 91c5 6ebc c62f 10bc
00000190: 0811 5bbc 0bc4 f13e bf64 373e 240a 213c
000001a0: 951d 5abf 6b3c 963e aee2 3f3f a562 d6be
000001b0: e398 a33c bbaf fa3d 6a02 34bd 9a80 25be
000001c0: c1a7 303c c02d 063d 6e1c 233e ee71 1abe
000001d0: d2ee b13c 48e9 3ebb fe77 86be 57e6 cb3e
000001e0: 018f 7ebd 632d 063d 041c 253e 0693 58bd
000001f0: 6c5c 2a3e 0455 2f3e 7803 953d fb62 063e
00000200: c9bf c03d 5e07 1ebe a02a 1ebe 989d e33d
00000210: e74b 323d 9a0f 0ebd 9741 ae3d 29c9 83bd
00000220: 28a7 2abe 2bcf d13d ddde 9b3d b961 31bd
00000230: e15d 0cbe 6a35 3f3d 7454 1a3d 0ace 9cbc
00000240: d6f9 7ebc 04bc 9bbd 84bb b1bd 6a73 36bd
00000250: 72aa 3e3e f748 1e3e 98c7 95be 8f52 cd3d
00000260: 0971 9dbd 8e99 423d 86b6 dc3e 320a 58be
00000270: 8710 e03d 3616 3abe 6f5d 243e 9fb3 68bd
00000280: e430 f7be 3749 873e 11e5 5c3e e939 eebd
00000290: 6953 f9bc 8514 183e df67 b9be befb 083d
000002a0: 23b1 8a3e bc7b de3d 45b5 b43d 0197 613c
000002b0: 4d8d bebe ed10 cbbd 7520 ca3d bf2e 9dbe
000002c0: ab3e debc 760a 0e3e 74f2 f3bd 6825 463e
000002d0: a617 80be cc2c 033b 3a78 a93d 5647 8e3e
000002e0: 3b85 163e a0d3 73be 4e1b 4c3e 2c46 853d
000002f0: 3b74 5f3e 4e03 01be 4ef5 10bf 8743 723d
00000300: b30d 9d3e 96c2 e53d 9d4e 143f f4c3 323e
00000310: 7937 61bf df3a 90be 0225 1d3e 3bef 2dbd
00000320: c9a7 24bd 94f0 153e 3f75 7e3d b036 dc3d
00000330: 44e5 2b3d 2beb 73bd 7a02 c73d 6197 5d3c
00000340: bb7c 4bbe 8db8 df3d f855 873e af70 703d
00000350: c980 173e 464a 033b a906 c2be fda9 33bd
00000360: 2399 913c d8cc 143c bd3d 413d 33f4 b6bd
00000370: 6931 cbbd 1728 c23d 00b1 c33d da3c 153d
00000380: 4791 f8bd 51a5 653e bebd 763d 1079 9dbe
00000390: f7f7 a2bd 4e41 65bd 8995 71bd 3136 003e
000003a0: 746d d43d 76d4 eeba 5a52 c33d 4525 c83e
000003b0: ae6c 233e 9695 253e 999e 7fbe abc5 03bf
000003c0: b704 143e 2190 2c3e a1df 423f a42f 7f3e
000003d0: 6723 6fbf 14ed abbe d4b7 e53c 3fdf 88bd
000003e0: d080 5d3d 90f5 24be ddde d6bd 5625 e33e
000003f0: f07c ab3d d827 0e3e 7736 df3d 64b7 f0bd
0.031874556 -0.1749188 0.16268185 -0.22542447 -0.3133144 0.387895 -0.10687062 -0.04350502
0.13951565 -0.14621997 0.1582281 0.15726021 -0.18184753 0.453502 0.027123423 0.5753398
0.21809536 -0.6394162 -0.005482303 -0.000982687 0.11334965 0.069118135 -0.10873925 -0.025666403
0.28659984 0.12382366 0.060328312 -0.05388597 -0.38593593 -0.06709958 0.022542048 -0.02314297
0.11527642 -0.16475648 0.041212365 0.24759856 -0.029246287 -0.055098154 -0.20831747 0.026076395
0.22095628 0.012355307 -0.10556155 -0.23592196 -0.05551121 -0.20040703 0.1286937 0.37839934
-0.086683415 -0.01679835 0.17821005 0.08661323 -0.08112594 -0.012633881 -0.06909379 -0.01632708
-0.08063889 0.2692766 0.10234405 -0.27739015 -0.24399048 -0.18304127 0.7705632 -0.038704578
-0.583687 0.2390742 -0.05070664 0.0025295056 -0.064978555 0.06830504 0.09721869 -0.05019172
-0.5643407 0.045499187 0.638594 -0.317105 -0.12364685 0.25762787 0.12688383 -0.048527446
0.037041638 0.08725309 -0.20395239 0.010917711 0.17977126 -0.24015324 -0.027961675 -0.009047354
-0.3333444 0.23421533 0.04271383 -0.03408415 0.15662639 0.002515657 -0.2314388 0.05389456
-0.025437426 -0.20787969 -0.014573471 -0.008800453 -0.01337076 0.4721988 0.17909525 0.009829078
-0.8520139 0.2934297 0.7495526 -0.41872135 0.019970363 0.12240549 -0.043947615 -0.16162339
0.010782183 0.032758474 0.15928814 -0.15082523 0.021720324 -0.0029130746 -0.26263422 0.39824173
-0.062148098 0.032758128 0.16123968 -0.052874587 0.16636819 0.17122275 0.07276052 0.13123696
0.0941158 -0.15432498 -0.15445948 0.11114043 0.043529417 -0.034682848 0.08508604 -0.06434853
-0.16665328 0.10244592 0.07610867 -0.043306086 -0.13707687 0.0466818 0.037678197 -0.019141216
-0.015562495 -0.076042205 -0.08678344 -0.04454366 0.18619707 0.15457521 -0.2925384 0.100255124
-0.07687575 0.047509722 0.43108004 -0.21097639 0.10940652 -0.18172535 0.16051267 -0.056811925
-0.48279488 0.26423046 0.21571757 -0.11632139 -0.03043528 0.14851578 -0.3621206 0.033443205
0.2708827 0.10863444 0.08823637 0.013768912 -0.3721718 -0.09915338 0.09869472 -0.30699727
-0.027129492 0.13871178 -0.11911479 0.19350207 -0.25018042 0.0020015715 0.082748845 0.277888
0.14699261 -0.23811197 0.19932291 0.06507525 0.21821682 -0.12598917 -0.56624305 0.05914643
0.30674514 0.11218755 0.57932454 0.17457563 -0.8797527 -0.28169915 0.15346149 -0.042464476
-0.040199075 0.14642555 0.062123533 0.10752618 0.04196669 -0.059550446 0.09717269 0.013524861
-0.198718 0.10923872 0.26432776 0.058701213 0.14795221 0.0020033284 -0.37895706 -0.043863285
0.017773217 0.009082042 0.04717802 -0.08933296 -0.099215336 0.09480303 0.095552444 0.036434986
-0.121370845 0.22426344 0.060239546 -0.30756426 -0.07957452 -0.055970483 -0.0589805 0.12520672
0.10372439 -0.0018221277 0.09537192 0.39090934 0.15959427 0.16170344 -0.24962844 -0.5147349
0.14454924 0.16851856 0.7612248 0.24920517 -0.93413395 -0.33579314 0.028041758 -0.06683206
0.054077923 -0.161093 -0.104917265 0.44364423 0.08373439 0.13882387 0.1089906 -0.11753729
